MachineLearningPSL/MS_PROJECT_BCD/Notebooks/models/NeuralNet.pth (torch, 14763 bytes, 4 tensors)

fc1.weight f4 [100, 30]
0	0xbe3dd38f	-0.18537734
1	0xbd0e6482	-0.03476382
2	0xbd02e3c3	-0.03195549
3	0x3e1d8de0	0.15386152
4	0xbcbb6a44	-0.02287782
5	0x3dafc089	0.08581645
6	0xbca21c73	-0.019788956
7	0x3d06e19f	0.032930013
8	0xbdc819ee	-0.09770571
9	0xbd2ad427	-0.04170623
10	0x3cd8294a	0.026386876
11	0xbe2f4a26	-0.17118129
12	0xbd9580c3	-0.0729995
13	0xbdff6619	-0.124706455
14	0xbd1daaf2	-0.038493104
15	0x3e1381d8	0.14405
16	0x3e0d345f	0.13789509
17	0x3d0e257f	0.034703728
18	0xbcd949df	-0.026524482
19	0xbdc4845e	-0.095955595
20	0xbdebc8d5	-0.11512915
21	0xbb9314f2	-0.004488581
22	0xbd60e797	-0.05490836
23	0xbe009e52	-0.12560394
24	0x3dda0b27	0.106466584
25	0xbd51d114	-0.051224783
26	0xbe3aea69	-0.18253483
27	0xbd915c57	-0.070976906
28	0x3dab565f	0.08366083
29	0xbdf2dad6	-0.11858146
30	0x3e2149e7	0.15750848
31	0xbd89431c	-0.06702253
32	0x3d4ad8cf	0.04952317
33	0x3d401e73	0.04690404
34	0x3e05ff97	0.13085781
35	0xbe37632f	-0.1790893
36	0x3d9c4492	0.07630266
37	0xbe0ec336	-0.13941655
38	0xbdbe28cd	-0.09285126
39	0xbdf94816	-0.121719524
40	0xbd4c3905	-0.049859066
41	0xbd9aba10	-0.0755502
42	0xbd1a6ed2	-0.037703343
43	0xbe39c432	-0.18141249
44	0xbde625df	-0.11237692
45	0x3d49e594	0.04929121
46	0xbd7d5e49	-0.061857495
47	0x3c873922	0.016506735
48	0xbdfcf527	-0.123514466
49	0x3d5427d5	0.0517958
50	0x3d9dc267	0.07703095
51	0x3e170b34	0.14750367
52	0xbe09a11e	-0.13440368
53	0xbd1de1d2	-0.038545437
54	0xbda0c543	-0.07850125
55	0xbd8f8e9e	-0.07009624
56	0xbe15130f	-0.14558052
57	0xbd549959	-0.051904056
58	0x3db7b355	0.08969752
59	0x3e0c67bf	0.13711451
60	0x3da1ecab	0.07906469
61	0x3d73a062	0.059479125
62	0xbb1f3882	-0.0024295156
63	0x3e4ecba8	0.20194876
64	0x3dcc1a07	0.09965902
65	0xbe022f4c	-0.12713355
66	0x3c8a7586	0.016901743
67	0x3df1d773	0.11808672
68	0x3def7fc4	0.11694291
69	0xbdd1acd2	-0.10238041
70	0x3cb58ba4	0.022161312
71	0xbe05ebe5	-0.13078268
72	0xbc6a38be	-0.014295755
73	0xbdf2027c	-0.1181688
74	0x3e03eecb	0.12884061
75	0x3e17a215	0.14807923
76	0xbd9aa714	-0.07551399
77	0x3e6b173a	0.22958079
78	0x3e535b8c	0.20640391
79	0xbd1359f1	-0.035974447
80	0xbe26f4af	-0.16304277
81	0xbd660f9f	-0.05616724
82	0x3cd2cd8a	0.025732774
83	0xbe3a3f84	-0.18188292
84	0x3cba43cc	0.022737406
85	0x3ddc83c9	0.107673235
86	0xbe0cac76	-0.13737664
87	0xbda70bea	-0.08156569
88	0x3dfb05ad	0.12256942
89	0xbe2ab564	-0.16670758
90	0x3e54a1a6	0.20764789
91	0x3e46e794	0.19424278
92	0x3e4c6bac	0.19962949
93	0x3e1dc2b1	0.154063
94	0x3eb9fbd1	0.36324933
95	0x3dc2fa63	0.09520414
96	0x3e86707a	0.26257688
97	0xbe5c1823	-0.21493582
98	0x3e8987a4	0.26861298
99	0x3e077235	0.1322716
100	0xbe76ad09	-0.24089445
101	0xbdc80bb0	-0.09767854
102	0x3e10d9ca	0.1414558
103	0xbdf4394d	-0.11924992
104	0xbd849103	-0.06472971
105	0x3d24ff84	0.04028274
106	0xbce16c65	-0.027517507
107	0x3e3e5413	0.1858676
108	0x3e8f8125	0.28028217
109	0x3e1d0af2	0.15336207
110	0xbe2679df	-0.16257428
111	0x3d82fc59	0.06395788
112	0xbcbbd0a5	-0.022926638
113	0x3e34ce7e	0.17656896
114	0x3d82d7eb	0.06388839
115	0x3c6a83e4	0.014313672
116	0x3d26af3c	0.04069446
117	0xbd6de1fe	-0.05807685
118	0xbdea9851	-0.11454833
119	0xbd9cdb21	-0.07658983
120	0xbdc7b0b1	-0.09750498
121	0x3e2fa006	0.17150888
122	0x3d90132f	0.07034909
123	0x3d3186b8	0.04334137
124	0x3debbe1d	0.115108706
125	0x3d570d81	0.052503113
126	0x3e0f7d54	0.14012653
127	0xbdb68228	-0.08911544
128	0xbe2cbda5	-0.16869219
129	0x3e2e1ba7	0.17002736
130	0xbe26bb8b	-0.1628248
131	0x3d98abae	0.0745462
132	0xbd83d744	-0.06437543
133	0xbe22d675	-0.15902121
134	0x3e19d8ca	0.15024105
135	0xbe36b372	-0.1784189
136	0xbd681ea8	-0.05666986
137	0x3dccfc35	0.10009042
138	0xbe194c37	-0.1497048
139	0x3d8cacb7	0.0686888
140	0xbbf8ab7a	-0.007588801
141	0xbd8cd5c1	-0.06876708
142	0x3c8a4acf	0.016881375
143	0x3e12ba57	0.14328896
144	0xbded5550	-0.11588538
145	0xbdf1a1d4	-0.117984444
146	0xbc9b45ac	-0.01895412
147	0xbe36a9b4	-0.17838174
148	0xbc87801d	-0.016540581
149	0x3d261ec1	0.040556673
150	0xbd90bfe7	-0.070678525
151	0x3e822cd9	0.2542484
152	0x3e8e7d48	0.27829957
153	0x3e89549a	0.26822358
154	0x3f09e715	0.5386823
155	0xbe174272	-0.1477144
156	0x3ef9704e	0.48718494
157	0xbe49fd90	-0.19725633
158	0x3ea529e5	0.32258525
159	0x3ef2edc0	0.47447014
160	0xbe08d75c	-0.13363403
161	0xbe1cd42f	-0.15315317
162	0x3dbaedfb	0.091274224
163	0x3d6b7da4	0.057492867
164	0xbe237c91	-0.15965487
165	0x3ed01c11	0.40646413
166	0x3e99f8b5	0.3007256
167	0x3e8229ec	0.2542261
168	0x3ebc0394	0.3672148
169	0x3ea55e37	0.32298443
170	0x3e30106e	0.17193767
171	0xbe04c0f9	-0.12964238
172	0x3d9201fa	0.07129283
173	0x3c3e5ca9	0.011618772
174	0xbe77b993	-0.24191885
175	0x3c7e8b32	0.015536116
176	0x3e632af3	0.22184353
177	0xbe949ff8	-0.29028296
178	0x3cff1644	0.031138547
179	0xbd338373	-0.04382653
180	0x3e4b8a63	0.19877009
181	0xbdf59055	-0.1199042
182	0x3dbdb7d2	0.092635766
183	0x3e7bea58	0.24601114
184	0xbc603ddf	-0.013686626
185	0x3d822aa6	0.06355791
186	0x3e57f221	0.21088459
187	0xbe4d164f	-0.20028041
188	0x3b952825	0.0045519047
189	0xbdc38aa5	-0.09547929
190	0x3e0007f9	0.12503041
191	0x3ddf405b	0.10900947
192	0xbba41088	-0.0050068535
193	0x3e59d4fa	0.2127265
194	0xbc00fa3b	-0.00787216
195	0x3e997899	0.2997482
196	0x3e4043c1	0.18775846
197	0x3d1dd7fd	0.03853606
198	0x3e4f255c	0.20229095
199	0x3dc4a834	0.09602395
200	0xbe1fcebe	-0.1560621
201	0xbd8d1a00	-0.06889725
202	0xbe3764aa	-0.17909494
203	0x3e85f8e4	0.2616645
204	0xbe0b3ef0	-0.13598228
205	0x3e074484	0.1320973
206	0x3e1ad48f	0.15120147
207	0xbe2c20cf	-0.1680939
208	0x3ce69063	0.02814502
209	0x3af17d59	0.0018424197
210	0xbd477c83	-0.048702728
211	0xbdae68be	-0.08516072
212	0xbcf21e2d	-0.029555405
213	0xbd127ac1	-0.0357616
214	0xbb3a3325	-0.0028411832
215	0x3e294198	0.16528928
216	0xbe15d9a5	-0.14633806
217	0x3de0d075	0.1097726
218	0xbad2d312	-0.0016084632
219	0x3de387d8	0.111098945
220	0xbd7ad6f5	-0.061240155
221	0xbe2dab9b	-0.16959994
222	0x3d91c4fc	0.0711765
223	0xbbdb68a5	-0.006695824
224	0xbe13e4fb	-0.14442818
225	0xbe146f8f	-0.14495681
226	0x3c9af9af	0.018917887
227	0x3d4bdf77	0.04977366
228	0xbdc20d4c	-0.094751924
229	0xbe21b9f5	-0.15793593
230	0x3da242d8	0.07922906
231	0xbde7a2cc	-0.11310348
232	0x3dae67c6	0.08515887
233	0xbdd54edd	-0.104154326
234	0x3d8054da	0.06266184
235	0xbe36e61b	-0.17861216
236	0x3def2479	0.116768785
237	0xbd253e99	-0.0403429
238	0xbd2c3ee0	-0.04205215
239	0xbe069184	-0.13141447
240	0xbe14aa5a	-0.14518109
241	0x3d71f88b	0.05907492
242	0x3e09b830	0.13449168
243	0x3e80f660	0.2518797
244	0x3e5e5538	0.21712196
245	0x3c670e63	0.014102551
246	0x3e819b78	0.25313926
247	0xbe403356	-0.18769583
248	0x3d150d04	0.036389366
249	0x3e8ad796	0.27117604
250	0x3dc97b71	0.09837998
251	0xbe32d59d	-0.174643
252	0xbd8eab3c	-0.06966254
253	0x3c9acd89	0.018896835
254	0xbd78d456	-0.060749374
255	0x3e4e70dd	0.20160241

fc1.bias f4 [100]
0	0x3c8d223b	0.017228236
1	0xbcb25838	-0.021770582
2	0x3c156748	0.009118862
3	0xbdb44be7	-0.0880354
4	0xbd893951	-0.06700385
5	0xbeb0cd69	-0.34531716
6	0xbe822e78	-0.25426078
7	0x3ce92da7	0.028464152
8	0xbdd75d6d	-0.105158664
9	0xbbddb55d	-0.006766005
10	0x3ee20e97	0.44151756
11	0xbc2813fa	-0.010258669
12	0x3df0b68c	0.11753568
13	0xbe0634be	-0.13106057
14	0x3df8c384	0.12146667
15	0xbe0e691d	-0.13907285
16	0x3ee62eee	0.4495768
17	0xbbe0f0a1	-0.0068646227
18	0xbb233e3f	-0.0024908928
19	0xbe47f897	-0.19528423
20	0x3e6aa0e5	0.22912939
21	0x3d2fd7b0	0.042930305
22	0x3e308d22	0.17241338
23	0xbd458bd6	-0.04822906
24	0x3e274578	0.16335094
25	0xbc2307b9	-0.009950572
26	0xbcf12304	-0.029435642
27	0x3dde1a2b	0.10844835
28	0xbd7d9036	-0.06190511
29	0xbd7e4223	-0.06207479
30	0x3dd0cc1c	0.10195181
31	0x3e86d344	0.26333058
32	0xbe5b7ec3	-0.21435075
33	0x3dd66496	0.10468404
34	0xbe1a6c38	-0.15080345
35	0xbdbc55d0	-0.09196055
36	0x3ca53a5f	0.020169435
37	0x3cf1e6b6	0.029528957
38	0x3e9482e2	0.29006106
39	0x3e8f7497	0.28018638
40	0xbd856b96	-0.06514661
41	0x3bac8f3a	0.0052660974
42	0xbded1838	-0.11576885
43	0xbddf3787	-0.10899263
44	0xbd547a31	-0.051874343
45	0xbcd5967e	-0.026072737
46	0x3f07934d	0.5295914
47	0x3f0977f6	0.5369867
48	0xbe386559	-0.18007411
49	0xbdfec85f	-0.124405615
50	0x3e72b6f8	0.2370261
51	0x3d7ab9dc	0.061212406
52	0xbeba60e7	-0.36402056
53	0x3effdd82	0.49973685
54	0x3d7eceb9	0.062208865
55	0xbf04688f	-0.51722044
56	0x3dfa5d3e	0.12224816
57	0x3d5765e9	0.052587423
58	0x3d16c012	0.036804266
59	0x3ebbe820	0.36700535
60	0xbde1a8d2	-0.11018528
61	0x3e35f293	0.17768316
62	0xbe39d6f7	-0.18148409
63	0x3e66b993	0.22531728
64	0x3e365ae1	0.17808105
65	0xbc11ed88	-0.0089067295
66	0xbc0c7183	-0.008571985
67	0xbe18e459	-0.14930858
68	0xbe83f793	-0.25774822
69	0x3e4a4d2e	0.19756004
70	0xbddbdf26	-0.107359216
71	0x3dfb9599	0.12284393
72	0xbb9981cf	-0.004684664
73	0xbdc3cabe	-0.095601544
74	0xbe6162c9	-0.2201034
75	0x3e9cbc2e	0.3061232
76	0xbe3335f1	-0.17501046
77	0x3ec183cf	0.37795874
78	0xbe60a6a7	-0.21938573
79	0xbc77687b	-0.015100594
80	0x3ea97525	0.33097187
81	0x3e8caadf	0.27474114
82	0x3ec35ce2	0.381568
83	0xbd92da03	-0.07170489
84	0xbdfa9dcd	-0.12237129
85	0x3b8daf80	0.0043238997
86	0x3e69831c	0.2280392
87	0x3e5ce589	0.21571936
88	0x3db14b7e	0.08656977
89	0x3ccbeefa	0.024894226
90	0xbe73906c	-0.23785561
91	0x3e2125d3	0.15737085
92	0xbda0286b	-0.07820209
93	0x3d3a715f	0.045518275
94	0xbe8a23bc	-0.26980388
95	0xbe0aef2f	-0.13567804
96	0xbe090708	-0.13381588
97	0x3e7dc77e	0.24783131
98	0x3ea737dd	0.32659808
99	0xbdc80b6c	-0.097678035

fc2.weight f4 [2, 100]
0	0x3db239ce	0.087024316
1	0xbd80b96a	-0.06285365
2	0xbe1adf92	-0.15124348
3	0xbedd5683	-0.43230066
4	0x3b75352d	0.0037415728
5	0xbf5db614	-0.86605954
6	0xbee642a3	-0.44972715
7	0xbd0560df	-0.032563087
8	0xbe7f98e9	-0.24960674
9	0xbdcf63ed	-0.10126481
10	0x3ee5dc94	0.4489485
11	0xbe1f6667	-0.15566407
12	0x3de71399	0.11283035
13	0x3d038b79	0.032115433
14	0x3ddfb670	0.10923469
15	0xbcbea7c8	-0.023273364
16	0x3f07f9cb	0.5311553
17	0xbd2cf5b7	-0.04222652
18	0xbceeede9	-0.029166179
19	0xbf01e286	-0.5073627
20	0x3e4b8f72	0.19878939
21	0xbec8751a	-0.3915184
22	0x3c636f1d	0.013881472
23	0xbe2c827c	-0.16846651
24	0x3e41f39f	0.1894059
25	0x3e88b05e	0.26697057
26	0x3c8ee658	0.01744382
27	0x3b3ff114	0.002928798
28	0x3dca6c32	0.09883918
29	0x3e3e11dc	0.185615
30	0x3d2c16ef	0.04201406
31	0x3e3d198b	0.18466775
32	0xbed70219	-0.41993788
33	0xbd0f6f1e	-0.03501808
34	0x3d1b3d55	0.037900288
35	0x3e7b034c	0.24512976
36	0x3e1427b9	0.14468278
37	0x3de80d32	0.11330642
38	0x3e99613c	0.29956996
39	0x3e7d3b42	0.24729636
40	0x3c9390ba	0.018013347
41	0x3e118905	0.14212425
42	0x3e182550	0.14857984
43	0xbd2f730c	-0.042834327
44	0xbe840794	-0.25787032
45	0x3e1ab26a	0.15107122
46	0x3f2d43d6	0.67681634
47	0x3f2d91e6	0.6780075
48	0xbd8f35b3	-0.06992664
49	0x3d9f04f3	0.07764616
50	0x3e7796c4	0.24178606
51	0x3d32b03d	0.043625105
52	0xbefe503f	-0.49670598
53	0x3f16ed63	0.58955973
54	0x3d1b56c7	0.037924554
55	0xbf45d447	-0.77277035
56	0x3d2101c0	0.03930831
57	0x3dcb2a34	0.09920159
58	0xbdf79a7a	-0.12090011
59	0x3eb9568e	0.36198848
60	0x3c2b6a9f	0.010462432
61	0x3db90119	0.090334125
62	0xbd943cf9	-0.07238192
63	0x3e816c32	0.2527786
64	0xbd518fd2	-0.05116255
65	0xbed133d0	-0.40859842
66	0x3c780b3c	0.015139397
67	0xbe234fa5	-0.1594835
68	0xbf12d0ed	-0.57350045
69	0x3e7f2f46	0.24920377
70	0xbd525b45	-0.051356573
71	0x3ca88d41	0.020575168
72	0xbe243d9f	-0.16039132
73	0xbdc90e20	-0.09817147
74	0xbf0f6a1a	-0.56021273
75	0x3efc6b06	0.49300402
76	0xbdcb9a77	-0.09941571
77	0x3e9880b2	0.29785687
78	0xbe91fa37	-0.2851121
79	0x3dbe83c1	0.09302474
80	0x3ed3618d	0.41285363
81	0x3e8a9713	0.27068385
82	0x3f02e39e	0.51128566
83	0x3bcc26cc	0.006230211
84	0x3d8fa724	0.070143014
85	0xbe942c2b	-0.28939947
86	0x3eb75818	0.35809398
87	0x3db989d9	0.090594955
88	0x3cb6114d	0.022225047
89	0xbca75fde	-0.020431455
90	0xbe4e5ab8	-0.20151794
91	0x3d49a435	0.049228866
92	0x3dc7e695	0.09760777
93	0xbe0e7019	-0.1390995
94	0xbf0fe09b	-0.56202096
95	0x3da4a8d6	0.080400154
96	0xbd46edb5	-0.04856654
97	0x3ea104df	0.3144903
98	0x3ebd68d6	0.36994046
99	0xbea33e91	-0.31883672
100	0xbd7979bd	-0.060907114
101	0x3e09351e	0.13399169
102	0x3e36471c	0.17800564
103	0x3ec1acdc	0.37827194
104	0xbc77410c	-0.015091192
105	0x3f5c50c6	0.8606075
106	0x3ea28a8a	0.31746322
107	0xbd3ad9b6	-0.04561778
108	0x3eb2ad35	0.3489777
109	0xbcfbe045	-0.030746588
110	0xbf01265b	-0.5044915
111	0x3d85a0cb	0.065248094
112	0xbda4adc2	-0.08040954
113	0xbd71c2b2	-0.059023567
114	0xbd667c1c	-0.056270704
115	0xbd53d247	-0.051714208
116	0xbf1ae46e	-0.60504806
117	0xbdafb19e	-0.085788
118	0x3c25673a	0.010095412
119	0x3f177fa2	0.5917913
120	0xbe683cf8	-0.22679508
121	0x3ed5e9dd	0.41779986
122	0xbd99bc0d	-0.07506571
123	0x3e882c0c	0.26596105
124	0xbe2800fa	-0.16406623
125	0xbe2c6a65	-0.16837461
126	0xbd789e87	-0.06069806
127	0x3bec8032	0.0072174305
128	0x3d05c77a	0.03266094
129	0xbe027649	-0.12740435
130	0xbe456bde	-0.1927943
131	0xbeaf8972	-0.3428455
132	0x3ed3a651	0.41337827
133	0x3ca264e0	0.019823492
134	0xbc532300	-0.012886763
135	0xbe864b1d	-0.26229182
136	0xbe38e777	-0.18057047
137	0x3d18c2be	0.037295096
138	0xbebcd8ec	-0.36884248
139	0xbe99ee3a	-0.30064565
140	0xbcacb9f4	-0.021084763
141	0xbe037d08	-0.12840664
142	0xbde6e2cb	-0.11273726
143	0x3e09c762	0.13454965
144	0x3e96f240	0.29481697
145	0x3c861abf	0.016370175
146	0xbf369ca7	-0.7133278
147	0xbf21bf8e	-0.63182914
148	0x3d944947	0.07240539
149	0x3b9ddf73	0.004817897
150	0xbe396686	-0.18105516
151	0xbe08fbb5	-0.13377269
152	0x3eb6a235	0.3567063
153	0xbf06c05b	-0.5263726
154	0x3a42ef38	0.0007436159
155	0x3f3cb90c	0.7371986
156	0x3d970aef	0.07375132
157	0xbd24065c	-0.040045127
158	0x3db34a53	0.087544106
159	0xbe884471	-0.26614717
160	0x3d7b2b6e	0.061320715
161	0xbd54ae2a	-0.05192391
162	0x3d939763	0.07206609
163	0xbe83eabd	-0.2576503
164	0x3cf8252b	0.03029116
165	0x3edac18b	0.42725787
166	0xbd5bb4df	-0.05363929
167	0x3e3bdff9	0.18347158
168	0x3ef6ec7c	0.48227298
169	0xbe8cdad9	-0.27510718
170	0x3e30444f	0.17213558
171	0xbe118623	-0.14211325
172	0x3d61482c	0.05500047
173	0x3d679a8d	0.056543875
174	0x3f1da0ac	0.6157329
175	0xbf0380b8	-0.51368284
176	0x3dcd63b9	0.10028786
177	0xbedbb120	-0.42908573
178	0x3eceff3c	0.40429103
179	0xbe0dacd6	-0.13835463
180	0xbed72496	-0.420201
181	0xbeb4a2db	-0.352805
182	0xbedc7600	-0.43058777
183	0xbd76fdea	-0.060300745
184	0xbda31bed	-0.07964311
185	0x3e97b556	0.29630536
186	0xbec3644d	-0.3816246
187	0xbe476d74	-0.19475347
188	0xbdd4be95	-0.10387913
189	0x3c689541	0.014195741
190	0x3e78b993	0.24289541
191	0xbd6129cc	-0.0549715
192	0xbe7b62b0	-0.24549365
193	0x3df5e782	0.12007047
194	0x3f1b8598	0.6075072
195	0xbe36f591	-0.17867114
196	0x3cc99b3c	0.024610154
197	0xbe9b549e	-0.30337995
198	0xbea102d9	-0.31447485
199	0x3ede2720	0.43389225

fc2.bias f4 [2]
0	0x3f30e1f0	0.69094753
1	0xbf2b546f	-0.6692571
